…
##model.compile(loss='categorical_crossentropy', optimizer='rmsprop', metrics=["accuracy"])

model.summary()

train_datagen.fit(trainX)


hist = model.fit_generator(train_datagen.flow(trainX, trainy,
                                     batch_size=64), epochs=110, validation_data=(testX, testy), workers = 4)
Train: X=(50000, 32, 32, 3), y=(50000, 1)
Test: X=(10000, 32, 32, 3), y=(10000, 1)

￼
_________________________________________________________________
Layer (type)                 Output Shape              Param #   
=================================================================
conv2d_46 (Conv2D)           (None, 30, 30, 32)        896       
_________________________________________________________________
activation_9 (Activation)    (None, 30, 30, 32)        0         
_________________________________________________________________
batch_normalization_7 (Batch (None, 30, 30, 32)        128       
_________________________________________________________________
conv2d_47 (Conv2D)           (None, 28, 28, 32)        9248      
_________________________________________________________________
activation_10 (Activation)   (None, 28, 28, 32)        0         
_________________________________________________________________
batch_normalization_8 (Batch (None, 28, 28, 32)        128       
_________________________________________________________________
max_pooling2d_23 (MaxPooling (None, 14, 14, 32)        0         
_________________________________________________________________
dropout_21 (Dropout)         (None, 14, 14, 32)        0         
_________________________________________________________________
conv2d_48 (Conv2D)           (None, 14, 14, 64)        18496     
_________________________________________________________________
activation_11 (Activation)   (None, 14, 14, 64)        0         
_________________________________________________________________
batch_normalization_9 (Batch (None, 14, 14, 64)        256       
_________________________________________________________________
conv2d_49 (Conv2D)           (None, 12, 12, 64)        36928     
_________________________________________________________________
activation_12 (Activation)   (None, 12, 12, 64)        0         
_________________________________________________________________
batch_normalization_10 (Batc (None, 12, 12, 64)        256       
_________________________________________________________________
max_pooling2d_24 (MaxPooling (None, 6, 6, 64)          0         
_________________________________________________________________
dropout_22 (Dropout)         (None, 6, 6, 64)          0         
_________________________________________________________________
conv2d_50 (Conv2D)           (None, 6, 6, 128)         73856     
_________________________________________________________________
activation_13 (Activation)   (None, 6, 6, 128)         0         
_________________________________________________________________
batch_normalization_11 (Batc (None, 6, 6, 128)         512       
_________________________________________________________________
conv2d_51 (Conv2D)           (None, 4, 4, 128)         147584    
_________________________________________________________________
activation_14 (Activation)   (None, 4, 4, 128)         0         
_________________________________________________________________
batch_normalization_12 (Batc (None, 4, 4, 128)         512       
_________________________________________________________________
max_pooling2d_25 (MaxPooling (None, 2, 2, 128)         0         
_________________________________________________________________
dropout_23 (Dropout)         (None, 2, 2, 128)         0         
_________________________________________________________________
flatten_4 (Flatten)          (None, 512)               0         
_________________________________________________________________
dense_7 (Dense)              (None, 512)               262656    
_________________________________________________________________
activation_15 (Activation)   (None, 512)               0         
_________________________________________________________________
dropout_24 (Dropout)         (None, 512)               0         
_________________________________________________________________
dense_8 (Dense)              (None, 10)                5130      
_________________________________________________________________
activation_16 (Activation)   (None, 10)                0         
=================================================================
Total params: 556,586
Trainable params: 555,690
Non-trainable params: 896
_________________________________________________________________
Epoch 1/110
782/782 [==============================] - 1205s 2s/step - loss: 2.1594 - acc: 0.2706 - val_loss: 1.5994 - val_acc: 0.4174
Epoch 2/110
782/782 [==============================] - 1153s 1s/step - loss: 1.6378 - acc: 0.4016 - val_loss: 1.4654 - val_acc: 0.4743
…
